mtcnn_py/ckptdir/PNet.pkl (torch_old, 29409 bytes, 8 tensors)

conv1.weight f4 [10, 3, 3, 3]
00000000: 4e03 513c e74b a03e b4d7 e53c fc5a 053f
00000010: 4fc6 4f3f 0454 143f d0b2 99be 8f8f 60bf
00000020: 5a41 21bf 1c7b 953e 3f1a 633e 4102 a53d
00000030: a021 f33e 5d31 1b3f 7ea3 403f b730 64bf
00000040: 1c07 a3bf 42ff 96bf f5fc 003f c9ba fd3e
00000050: fce3 343f e800 f83e cc99 213f f8c6 023f
00000060: e203 65bf ec65 a8bf 7790 62bf 80db 6dbe
00000070: ec59 143f 09f4 ba3e 5284 c23d 60df 973f
00000080: 55cf 583f 4d43 6cbe 82a9 193f c5c1 933e
00000090: 24f2 303f f9d1 2d3f cb87 143f c8f9 d83e
000000a0: 4a8a 233f f63b 153f 06ce 523f f710 f73e
000000b0: 411b 5b3f 532e 93be 1c52 9fbf 630e 2cbf
000000c0: 8a24 0ebf 2141 b5bf 78ff 93bf 5181 08bf
000000d0: d1ee 89bf 28c3 84bf 080e e13e 1efc e5be
000000e0: d2f9 58bf c243 8b3c 5649 89bf 0e07 bdbf
000000f0: e6d5 c6bd 96ad 55bf da3b 94bf 7a11 463f
00000100: 3404 843f ea94 7c3f 00c4 523f e026 9a3f
00000110: b9ae 883f e94f 893f 17c2 903f 89b7 8c3f
00000120: 5792 86bf 1fe0 09bf c21c e7bd 2ffe 56bf
00000130: f3fd d9bd e369 bf3e f19a 67bf dde1 7cbe
00000140: 968e 9c3d 858c 603f c228 ff3d c4a2 c43e
00000150: 0133 953e 3a9e 0dbf 1f64 233c 770a d23f
00000160: 6dc6 2abe ca2a c43e bd7a 1ebf 9913 28bf
00000170: 4460 aebe 9ac1 a2bf 4140 d3bf 5d4c 98bf
00000180: 3b3e 73bf a543 d0bf 3d1d 1dbf 25a2 86be
00000190: 970c 893f 6c93 66be 45d5 1b3d 1c0d fd3f
000001a0: 42ad 033f 373d cebe a6bb 933f b5a3 163e
000001b0: 42ba 233f dd4a cdbf 3a3e 0e3f 3e80 423f
000001c0: 9141 89bf db31 2e3f 8547 b73e 6015 82be
000001d0: 0197 8f3e 669b 4e3f 41cc aabf 3156 593f
000001e0: 764c 353f dd0f 96bf 705d 0e3f e755 053d
000001f0: 3541 64bf 24ad 243d 69ab 1a3f a6e6 b3bf
00000200: b4b5 1f3f 8ed5 8c3e d4b3 89bf 8e82 043f
00000210: 0495 b43e a6a2 83be 223c e03e 09ec 093e
00000220: db7a 25bf 0ed9 e93d c02e 083d e05d 373e
00000230: 1693 8f3e dab7 57be 59ac c23e 2eb1 87bc
00000240: 716b 0cbf 6643 08bf 7346 dabc e567 18be
00000250: 440a 823e 9a85 eb3e c566 3fbd c2ac cc3e
00000260: 25db 3cbc 3f18 08c0 d59c a6bf 93a7 63bf
00000270: 5179 9cbe 3548 6c3e 68ee 083f e06e 873f
00000280: 443f a63f d967 963f 3a14 f93d 15e9 fd3d
00000290: e803 afbe 0f6e be3d d017 0bbd 1c6f febe
000002a0: 92ab c5be be7f 27bf 9479 6a3f 4564 9a3c
000002b0: 2bb9 493f 5465 c5be 8bd0 dc3e 3ee7 8d3e
000002c0: 3b61 62bf 43af 91bd b6d4 f3be abb8 83be
000002d0: cecf 1b3f 03f1 2c3f a067 82bf 5fbb 983f
000002e0: 9e19 3f3f 7006 a3bf e90f 483f e183 adbe
000002f0: eb80 05c0 460f 72be 1e82 29bf de0d 323e
00000300: bc20 cf3e 1b58 7dbd 0f49 d5be 7898 163e
00000310: 8279 0d3f 71a8 ecbd ed2f 063e 747d 41be
00000320: ff6c 4abe fe51 3d3f 2109 293c 1441 febe
00000330: 33a2 213e 5282 9c3e ea5a 8cbe ad45 2c3f
00000340: 35f6 63bf c978 08c0 f6ff 4c3f 6bcc a73e
00000350: 3f20 92bf 3f72 513f 0d7e 743f 141e 863e
00000360: f802 4fbf 2501 593f 2fbd 93bf decb d73e
00000370: fa4a 72bf e2ec c23f c53b 00bf eb82 47be
00000380: b6eb 71bd a3ae 2ebf e3df 753f 2167 7fbf
00000390: ac7c 4e3f 37e0 55bf a3d9 bc3f 20fb 7bbc
000003a0: 8330 cbbe beed 96be 8902 13bf 9c78 073f
000003b0: a9ed 76bf e455 273f 1234 11bf f6c6 703f
000003c0: 5fed 013e 46f4 08be ac22 33bf ac1c afbe
000003d0: d78d 3abe fb53 ec3e a8da 64bf acd6 2cbe
000003e0: cc81 253f c945 5dbe 145c 923e 781b 1b3f
000003f0: b44d 07bf e503 793e 5fa4 0e3f b9ff 80bf
0.012757136 0.3130791 0.028056957 0.52091956 0.8116197 0.579407 -0.30019236 -0.87719053
-0.62990344 0.29195487 0.22177981 0.080570705 0.4748659 0.606222 0.7524947 -0.8913683
-1.2736545 -1.1796649 0.5038598 0.49556568 0.70660377 0.4843819 0.631253 0.5108485
-0.8945905 -1.3156104 -0.88501686 -0.23228264 0.5794971 0.3651431 0.09497894 1.1865044
0.84691364 -0.23072548 0.60024273 0.28858772 0.6911948 0.6789852 0.58019704 0.42378068
0.6388289 0.5829462 0.82345617 0.4825513 0.8558846 -0.2874628 -1.2446933 -0.6720945
-0.55524504 -1.4160501 -1.1562338 -0.5332232 -1.0776006 -1.0372057 0.43956017 -0.44918913
-0.84756196 0.017000083 -1.0725505 -1.4767778 -0.09708767 -0.83467996 -1.1580765 0.7737042
1.0313783 0.98664725 0.8233032 1.2043114 1.0678321 1.0727512 1.1309232 1.099351
-1.0513409 -0.53857607 -0.11284782 -0.83981603 -0.1064414 0.37385473 -0.90470797 -0.24695535
0.076443836 0.87714416 0.12458946 0.3840543 0.29140475 -0.5531956 0.009972601 1.6409444
-0.16677256 0.38313895 -0.61906034 -0.65654904 -0.3405782 -1.2715333 -1.6503984 -1.1898304
-0.9501683 -1.6270643 -0.6137274 -0.2629558 1.0706967 -0.22517174 0.038045187 1.9769626
0.51436245 -0.40281078 1.1541641 0.14710887 0.6395608 -1.6038471 0.555637 0.7597693
-1.0723134 0.68044823 0.35796753 -0.25406933 0.28044894 0.8070587 -1.3343583 0.8489714
0.70819795 -1.1723591 0.55611324 0.032552626 -0.89162 0.040204182 0.604178 -1.4054763
0.6238663 0.2750668 -1.0758004 0.5176171 0.3526994 -0.25710028 0.43795878 0.13468947
-0.6464059 0.11418353 0.03324771 0.17906904 0.28041905 -0.21066228 0.38022116 -0.016563978
-0.5485144 -0.5322784 -0.02664492 -0.14883383 0.25398457 0.46000367 -0.046728868 0.39975554
-0.0115268575 -2.1264799 -1.3016611 -0.8892757 -0.30561307 0.2307442 0.5348878 1.0580711
1.2988057 1.1750442 0.12162061 0.123979725 -0.34182668 0.09298336 -0.033958256 -0.49694145
-0.3860746 -0.65429294 0.91591763 0.01884664 0.7879817 -0.3855387 0.43127856 0.27715486
-0.8842961 -0.07113507 -0.47623223 -0.25726828 0.6086396 0.67555255 -1.0187874 1.1932181
0.74648464 -1.273634 0.78149277 -0.33889678 -2.0859935 -0.23638639 -0.6621417 0.17388102
0.40454662 -0.061851602 -0.41657302 0.147066 0.5526353 -0.11555565 0.1310422 -0.18895513
-0.19768141 0.73953235 0.010317118 -0.49659026 0.1578453 0.30568177 -0.27413112 0.67293817
-0.8904756 -2.1323721 0.80078065 0.32773146 -1.1416091 0.8181495 0.9550484 0.26194823
-0.80863905 0.8476737 -1.1542109 0.42147726 -0.94645655 1.5228541 -0.500912 -0.19483535
-0.059062682 -0.68235224 0.9604475 -0.9976674 0.80658984 -0.8354525 1.4753917 -0.015379697
-0.3968545 -0.29478258 -0.57425743 0.5291841 -0.9645639 0.65365434 -0.5672008 0.9405359
0.12688206 -0.13374433 -0.6997478 -0.34201562 -0.1821817 0.46157822 -0.8939614 -0.16878766
0.6465118 -0.21608652 0.28585875 0.6058879 -0.5285294 0.24317892 0.5571956 -1.007804

conv1.bias f4 [10]
00000000: 777f 3dbd 81bc d53e 1bd7 b33d 1bac 18be
00000010: fea2 67be c6cd 703d 04eb 283d a9b5 4f3c
00000020: cade 903d 8221 223d
-0.046264138 0.4174538 0.087812625 -0.14909403 -0.2262077 0.05878999 0.041239753 0.0126775885
0.07073744 0.039582737

conv2.weight f4 [16, 10, 3, 3]
00000000: da77 fe3e dfb9 533f 06a1 0cbe 83a8 e4bf
00000010: 7ee0 a4bf 064f e0bf b647 52bf 4565 a6bf
00000020: edd6 73bf c01a 85bf 2343 18c0 0a6d b5be
00000030: c042 8f3f 9af7 193f 9ea7 0940 d0e0 6fbf
00000040: 708c 48bf 4035 55bf 9a1d 85bf a6c9 03be
00000050: ad7f 8bbf e97b e93f 6c51 ab3f 21d1 4c3f
00000060: eac1 dabf cec3 94bf 5b26 6cbf fad1 c83e
00000070: 74ea 723f 903e 67bf 9dc6 0bbe f729 8fbe
00000080: 3259 013f 3d0b 01c0 e997 1cc0 370f fcbe
00000090: 3081 b73e 4ca7 0a3f a169 0d3e dbcd 80bf
000000a0: 2dd4 9bbf 0d83 d4bd b32b 24bf 29c8 4ebf
000000b0: 520d cf3e d0f2 853f b0cd 0a3f aafd 45be
000000c0: 54a4 a33f debf 173f 784d bebe 5224 86be
000000d0: 3011 223d ef42 68be f360 5b3f 58f7 2ebf
000000e0: 0c5b 9cbc 1a37 75bf 62b2 1abf ace4 07bf
000000f0: 3dba 5b3e 6353 903e 7c6d 963f 6a72 b63d
00000100: bb3c 4c3f 9524 dabe cdf7 dabe 217d f93e
00000110: 3de1 02bd ea00 3a3f b343 1e3e 200a 303f
00000120: f61a ebbe 59c3 533f 45e4 d8be aa04 873f
00000130: 1943 0b3f 3798 42be 76e6 67c0 d714 5cbf
00000140: 03ad 08bf c1a0 05bf d41a 2a3f 755d 3e3f
00000150: 8662 dbbe 3e03 d0bf aece 18be 62dc 213f
00000160: a6f0 743e 4214 51be 516a 91bf a7d2 38c0
00000170: da68 33bf 5301 7bbe 794d a5bf 1219 bb3d
00000180: 0ebd 893e 7423 a13e b57e 0e3f e130 f3bf
00000190: 505d 78bf b54b 61bf ea11 2d3f e5d4 8e3f
000001a0: 95df bc3f 7f56 e73e 4afe 2e3f 26b3 0ebf
000001b0: 6d6b 8abe 4c73 103f c63c 9c3e bc5c 85be
000001c0: dc15 db3e e40f d93e c5bd e6be 5994 39be
000001d0: cf0a 16bf c3b4 94bf 4d1f 8f3f 24a7 8ebe
000001e0: 4bd2 8d3f df77 b03e da6d 83bf f250 023f
000001f0: 2728 9bbf bccb 6d3e 6f5b 8b3f a70d 053f
00000200: 493a 793e fe78 86be 1ae8 f43d 7236 91bf
00000210: 4c7a ff3e aab0 f93e d418 143e 8157 e5bf
00000220: f0d7 d0bf 55da 5a3d b76e 28bf bdd1 863e
00000230: 516c 033f f2c0 1a3e 1263 2d3f f1d0 383f
00000240: 99ee 413c bd4a 2240 16b8 103f 72df 6b3d
00000250: 14fd 8bbe dd29 093d 1194 95be 305c d3be
00000260: a41d 4cbe 0f7d a1bd da7f 01bf c599 55bf
00000270: 7dcf 373e 79ff 843d 3fc3 8f3b e5ed 943e
00000280: 4dc7 233e fdc4 b03e 87fb 743e 5352 4b3c
00000290: bbc3 233f c0ae d0be 4a20 b23f db9d d1be
000002a0: fd3d 713f e3a1 1dbe a9a0 b43e abd7 5d3d
000002b0: 01f1 943f ad7b da3e 7510 adbe 4864 d93e
000002c0: 49f9 19bf 80f5 403e 51b3 c8be 82ba c3bd
000002d0: 2e71 063f 8ade 483c 2424 8fbd d3c7 1e3e
000002e0: 154b 923e 0c6d 55bf 8322 943e dfda f2bb
000002f0: 805f 8a3d 527c a3bf 140c 42bf 827d c13f
00000300: c745 9b3e aa0d f13e ec3f d6be 8eda 69bf
00000310: 0b14 193f a0d8 bcbc 3f4e 34bf 2d86 cf3e
00000320: 073b a13f 3e6b 3abf bafc dabe 14e2 97bf
00000330: eef7 cd3d bf91 bf3f c36d 523e 719a 5ebf
00000340: 89f9 66be c266 003f 6bf2 503e a7b8 87be
00000350: fd9f 9ebe 07b9 fcbe dfaa 8c3f 34ed 44bd
00000360: a99d 44c0 1ed0 a8bf 9013 b4be 83a0 ccbe
00000370: 28d3 33bb d18c 463e 21fc db3e 8223 0a3f
00000380: 1f15 573e 4680 df3f 8978 ee3e 7834 98bf
00000390: 7e41 213d c449 ecbe c7be 94be 421b 213f
000003a0: 6203 bcbe 985b 763f c335 b3bf f739 6abf
000003b0: 51f7 3dbf 9ded 1b3d e25e 01bf 82dd ab3b
000003c0: 8165 c83d 27c7 ec3e 7a89 39bd b60f dcbf
000003d0: 3390 a43e 1eb5 823f bf3e 4abf da9b c5be
000003e0: d52e 973e 0785 16bf 3770 363f 65d0 a8bd
000003f0: 7c9c 1e3f 67a8 1d3f 616e cebe 9d1c 063f
0.49700814 0.8270549 -0.137333 -1.7863926 -1.288101 -1.7524116 -0.8214067 -1.2999655
-0.95249826 -1.0398788 -2.3790977 -0.35434753 1.1192245 0.60143435 2.1508555 -0.9370241
-0.7833929 -0.8328438 -1.0399659 -0.12869892 -1.0898339 1.8240939 1.3384223 0.80006605
-1.7090428 -1.1622255 -0.92246026 0.392227 0.94889 -0.9032984 -0.13649984 -0.27961704
0.50526726 -2.016311 -2.4467719 -0.49230358 0.3584075 0.54161525 0.13809825 -1.0062822
-1.2174126 -0.103765585 -0.6412918 -0.8077417 0.4043985 1.0464725 0.54220104 -0.19335046
1.2784524 0.5927714 -0.3716848 -0.26199585 0.039567173 -0.22681783 0.8569481 -0.68346167
-0.019086383 -0.95787203 -0.6042844 -0.530833 0.21457763 0.2818862 1.1752162 0.089085415
0.7978017 -0.42606035 -0.42767182 0.48728278 -0.031953085 0.72657645 0.15455513 0.6876545
-0.45919007 0.8271995 -0.42361656 1.0548298 0.5439926 -0.19003378 -3.6234412 -0.859693
-0.53388995 -0.52198416 0.66447186 0.74361354 -0.42848605 -1.625099 -0.14922592 0.632269
0.23919925 -0.20417884 -1.136057 -2.8878572 -0.70081866 -0.24512224 -1.2914268 0.09135641
0.2690205 0.3147236 0.5566209 -1.8999292 -0.97017384 -0.88006145 0.6760546 1.115872
1.4755732 0.4518318 0.68356764 -0.5574211 -0.27035084 0.5642593 0.30515116 -0.26047313
0.42790115 0.42394936 -0.45066658 -0.18122996 -0.5861024 -1.1617664 1.1181427 -0.27861893
1.1079801 0.34466454 -1.0267899 0.5090476 -1.2121629 0.2322225 1.0887278 0.51973957
0.2433864 -0.26264185 0.11958332 -1.134474 0.49897993 0.48767596 0.14462596 -1.7917329
-1.6315899 0.053430874 -0.6579394 0.26331893 0.5133715 0.15112665 0.67729294 0.7219382
0.011836671 2.5358117 0.5653089 0.05758614 -0.2734152 0.03348719 -0.29214528 -0.4128127
-0.19933182 -0.07885181 -0.5058571 -0.8343776 0.17950244 0.0649404 0.004387289 0.2908775
0.15993996 0.3452529 0.23924075 0.012409764 0.63970536 -0.40758324 1.3916104 -0.40940747
0.9423521 -0.15393786 0.35278824 0.054160755 1.1636049 0.42672482 -0.33801618 0.4245932
-0.60146004 0.18843651 -0.39199308 -0.09557058 0.5251645 0.012260089 -0.06989315 0.15505914
0.28572908 -0.8336952 0.2893258 -0.0074113454 0.067564964 -1.2772315 -0.7579968 1.5116427
0.30326673 0.47080737 -0.41845644 -0.91349113 0.5979621 -0.023052514 -0.70431894 0.40532055
1.2596139 -0.7281989 -0.4277094 -1.1865869 0.100570545 1.4966353 0.20549683 -0.8695441
-0.22556128 0.50156796 0.20404975 -0.26508066 -0.30981436 -0.49359915 1.0989646 -0.048077777
-3.0721228 -1.3188512 -0.35171175 -0.3996621 -0.0027439091 0.19389655 0.42965797 0.5396043
0.21004151 1.7461021 0.46576336 -1.1891012 0.0393691 -0.4615003 -0.29051802 0.6293222
-0.3672133 0.9623351 -1.4000782 -0.914947 -0.742055 0.038068403 -0.50535405 0.0052449116
0.09784985 0.4624569 -0.045297123 -1.7192295 0.32141265 1.0211523 -0.7900199 -0.38595468
0.29527918 -0.58796734 0.71264976 -0.08242873 0.61957526 0.61585087 -0.40318587 0.5238741

conv2.bias f4 [16]
00000000: 740a 9bbf 0b25 613f 86e0 2040 d23f 013f
00000010: cc9b 03bf 34d7 1940 4b50 cd3f acd6 0f40
00000020: 397b 1e3f 6331 44bf 78d8 6abb 0979 65c0
00000030: 93c0 ae3f b6ca 983f 6a31 0240 9487 283f
-1.2112565 0.8794715 2.5137038 0.5048801 -0.514096 2.40376 1.6040128 2.2474775
0.6190677 -0.7663786 -0.0035834592 -3.5855124 1.3652519 1.1936862 2.034266 0.65831876

conv3.weight f4 [32, 16, 3, 3]
00000000: fc81 e03e c63b 22bf 94ca c0bf 0be8 35be
00000010: 0c82 b2bf 005b c8bf 3813 9a3f 2b88 0cbf
00000020: 31fa e0bf 8ff1 71bf 735b 3dbf e157 973f
00000030: db04 a9be e2cc 99bd 8611 c93e b17b 6b3f
00000040: c880 4b3f 0c46 293f 220a 9f3f 8465 0d3e
00000050: 62c2 a9bf 2466 173e 5da7 02be 8975 6dbe
00000060: 9227 053f 22bd 3f3e 0bc1 f7be a2a2 65be
00000070: 1dba 6c3d f37f 1f3f 382b 13bc 685e 00bf
00000080: d1c0 a03f a1df 91be caa6 2b3c 4ea9 263e
00000090: 6b4a 92bf 5394 abbf 8207 5d3e cd4a 08be
000000a0: 8923 31bf 199a 593c f3c9 853f 4f2e c3be
000000b0: 0baa a1be 959c 00bf eac4 b03e 2e38 ac3e
000000c0: b2f7 d6be 187c 20bf b66d 34bf 0177 0c3f
000000d0: e9b6 473f e090 0abf d4ac 74be faba 913d
000000e0: 8364 723e 4e46 80be 40ba b9bd c3f8 123f
000000f0: 7037 9f3d 21c6 823d 246e be3f 594c 11c0
00000100: d428 c5bf 648b 48c0 0fde cebe f35c 39bf
00000110: 08a6 90bf e679 383f 4165 f33e af99 a73e
00000120: fe4c b2be 7d0e 75bf 2650 aabf de13 0dbd
00000130: fd0b cbbf 5284 a8bf f644 93be 0813 4abf
00000140: 12fc 99bd a2f8 803e d53f 6dbf 15d1 06be
00000150: 79c6 863e 7ce4 1c3f 0248 883e e540 8c3e
00000160: 35d3 c43e 1f39 e9bf 6a4c ecbe aaa1 5dbe
00000170: 4b4a df3e f88f 5d3f e143 453f 1229 973f
00000180: dc35 613f 3512 c53f b369 703f 8935 2dbf
00000190: e065 75bf e490 68bf d5b6 fd3e fb28 33bf
000001a0: d90a 75bf 704e ddbd ac3a ec3d edd9 65bf
000001b0: aa1f d03c 2230 64bf fe36 fbbd df20 bcbf
000001c0: c559 adbf c4b0 983e 6688 07bf 3b22 a6be
000001d0: dfab 143e 14d0 90bf 0d45 4dbe 1c6d bfbe
000001e0: fb5c a1bd 5591 c8be 1043 0fbf 489a ccbd
000001f0: fc7b 30be 3cac 43bf f74f 033f c8f6 42bf
00000200: faba 38bf 5a22 a7bf 57f0 83bd 5464 b3be
00000210: b4ba a13e fd45 8c3f cdf8 223e bac2 bcbf
00000220: cedd 9ebf 196c f5be cff4 1abf 5b1e a8be
00000230: a8f0 1bbf fda2 c3be f3f6 833c 1fb3 f43e
00000240: 98a2 09bf 5b95 173f 234b 083f 863e 143f
00000250: 860e 5cbf ae31 a0bd b275 e3be 292a 493e
00000260: 711c de3d ff05 a0be 2b1a 1bbc 3803 a5be
00000270: b511 7fbd 8faa 763f 5985 34bf e48b 153c
00000280: 3616 c5be 3716 9fbf dc24 42bd a993 f0bd
00000290: ad32 2abf 103c fabd d071 13bf fb14 02bf
000002a0: f65c 0f3f b43b 2fbe 930a e9be a971 2abe
000002b0: e304 d9be b1c6 c6bf 0589 323f 3660 713c
000002c0: a2f8 6fbf 30e5 643f 6071 41bf b664 7dbf
000002d0: e083 a2bf c298 26bf 523d a03f 3095 b1bf
000002e0: 9dc8 6bbf 4e11 283e 7378 e4bf cde6 7abf
000002f0: 73c5 85bf ad16 543f 6446 c8bd eddf 7b3f
00000300: 9a83 2a3f b0f7 24be e35a 393f 1b2a e83d
00000310: 24e4 8abf 927e cb3e 9883 903e f19b bf3d
00000320: b1c3 b5be 05f0 2b3f 7542 4f3e c63a 683f
00000330: 89d1 453e 4ab6 a6be 0154 233e 0b45 a1bf
00000340: 31b1 2d3e 9b64 2b3d 6f1f 4cbe fab2 1a3f
00000350: 0b77 d2be 9aed ae3d b29e 7abe 01dc 61be
00000360: 95ff 20bf a791 a5bc 5915 35bf e390 7cbf
00000370: 8710 5ebe 15ab 9bbf edcb 1fbf f97b c8bf
00000380: 2ae2 d0bf 6c6e f4bc 2d7e 5e3e a163 dfbe
00000390: 7fbf e23e 6801 8e3e 1c4f 83be c6cf 323f
000003a0: c68a f93d 6c92 4d3f d922 16be d27d 8bbe
000003b0: 8216 ccbe 63f3 10bf 5454 f6be 3e07 493d
000003c0: cba4 9fbf 08bc d0bf ff2b 73bf 6760 bfbe
000003d0: e676 aebf 10db 75bf 620e c4be 3898 8bbf
000003e0: d871 583f 939d 34bf 5aa9 9abf ec4c cc3d
000003f0: 3528 e53e da95 753f 93dd 093f 7238 043f
0.4384917 -0.6337246 -1.5061822 -0.17764299 -1.3945937 -1.5652771 1.2037115 -0.54895276
-1.7576352 -0.94509214 -0.73967665 1.1823694 -0.33011517 -0.075097814 0.39271182 0.91985613
0.7949338 0.6612251 1.2424967 0.13808256 -1.3262446 0.14785057 -0.12759157 -0.23189367
0.52013505 0.18724492 -0.48389468 -0.2242532 0.05779468 0.6230461 -0.008982472 -0.5014405
1.2558843 -0.28490928 0.010476777 0.16275522 -1.142896 -1.340464 0.21584895 -0.13309784
-0.6919485 0.013281369 1.0452255 -0.38121268 -0.31575045 -0.50238925 0.34525234 0.33636612
-0.41985852 -0.6268935 -0.70479906 0.54869086 0.78013474 -0.5412731 -0.23894054 0.07115741
0.23671155 -0.25053638 -0.090687275 0.5741083 0.07774246 0.06385446 1.4877362 -2.270285
-1.5403085 -3.1335077 -0.40403792 -0.72407454 -1.1300669 0.72061 0.47538188 0.3273444
-0.34824365 -0.9572523 -1.3305709 -0.034442775 -1.5863034 -1.3165381 -0.2876355 -0.7893529
-0.07518782 0.25189692 -0.92675525 -0.13165696 0.26323298 0.6128614 0.26617438 0.2739326
0.38442388 -1.8220557 -0.4615205 -0.21643701 0.4361137 0.86547804 0.770567 1.1809409
0.8797281 1.5396181 0.93911284 -0.67659813 -0.95858574 -0.90846086 0.49553552 -0.69984406
-0.9571968 -0.108059764 0.11534628 -0.89785653 0.025405724 -0.89135945 -0.12266348 -1.4697531
-1.354302 0.2982236 -0.529425 -0.3244799 0.14518689 -1.13135 -0.20045872 -0.3738793
-0.07879063 -0.3917338 -0.55961704 -0.09990364 -0.17234796 -0.76434684 0.5129389 -0.7615781
-0.72160304 -1.3057358 -0.064423256 -0.35037482 0.31587756 1.0958859 0.15915222 -1.4746926
-1.241144 -0.47934034 -0.605298 -0.3283566 -0.6091409 -0.38210288 0.016108966 0.4779291
-0.53763723 0.59212273 0.5323965 0.57907903 -0.8595966 -0.07821976 -0.44425732 0.19644989
0.108452685 -0.31254575 -0.009466688 -0.32229018 -0.062272746 0.96354 -0.7051597 0.009127591
-0.38493508 -1.2428654 -0.047398433 -0.11746914 -0.66483575 -0.12218487 -0.5759554 -0.50813264
0.5600122 -0.17112619 -0.4551588 -0.1664492 -0.4238654 -1.5529386 0.69740325 0.014732411
-0.9373876 0.8941221 -0.7556362 -0.989818 -1.2696495 -0.6507684 1.2518713 -1.3873653
-0.92102987 0.16412851 -1.7849258 -0.98008424 -1.0450882 0.828471 -0.09779051 0.9838856
0.6660706 -0.1611011 0.7240431 0.11336156 -1.0850873 0.39745003 0.28225398 0.09355915
-0.35500863 0.67163116 0.20240195 0.9071468 0.19318213 -0.3256095 0.15950014 -1.2599195
0.16962124 0.04184399 -0.19933866 0.60429347 -0.41106448 0.08541413 -0.244746 -0.22056581
-0.6288999 -0.020211054 -0.707357 -0.9865858 -0.21685992 -1.2161585 -0.6242054 -1.5662833
-1.631902 -0.02983781 0.2172782 -0.43630698 0.44286725 0.27735448 -0.25646293 0.6984829
0.12184672 0.8030155 -0.14661731 -0.2724443 -0.39860922 -0.5662138 -0.48111212 0.049079172
-1.2472166 -1.6307383 -0.9498901 -0.37378237 -1.3630035 -0.9603739 -0.38292223 -1.0905828
0.8454871 -0.7055294 -1.2082932 0.09975609 0.44757238 0.9593178 0.5385372 0.5164863

conv3.bias f4 [32]
00000000: ae67 33bf ed6e 833f 45e6 8c40 5835 663c
00000010: df95 7440 0c43 7040 56f8 18c0 af52 d03e
00000020: 0810 b340 49df 0ebf ac9a 4c3e a2a7 a840
00000030: e005 50bf b6d0 283f 5f85 423d e88b afbe
00000040: 2756 58bf 7032 1e40 2545 4640 7836 cc40
00000050: 88c3 103e 759e 6040 96c1 3040 f894 64bf
00000060: 7085 18bf 1bde c640 3218 8c40 9801 1140
00000070: 640f 9d3e 0c37 ca3f 2055 fcbe aa3b 48bf
-0.7008008 1.0268227 4.403109 0.014050804 3.8216474 3.7540922 -2.3901572 0.40688083
5.595707 -0.55809456 0.19980878 5.270463 -0.81258965 0.6594347 0.047490474 -0.34286427
-0.8450646 2.4718285 3.0979702 6.381649 0.14137089 3.5096714 2.7618155 -0.8928981
-0.5957861 6.2146125 4.3779535 2.2657223 0.30675805 1.5798049 -0.49283695 -0.7821604

conv4.weight f4 [15, 32, 1, 1]
00000000: 38af 92bd 3712 2cbd 6f9c 183e dff5 203c
00000010: 8305 263e 277b dbbd ebf8 8abd 1a4f 063f
00000020: 9041 053e da46 a3bd fe7e 303e 6f57 c5bd
00000030: afd8 53bf c71e 043e 653e 533c 8058 273b
00000040: 95fa f03d 4ee1 093e 0214 043e 66a0 25bd
00000050: d6f6 8a3d bf9a 043e 4930 1c3e 3fbf debd
00000060: 2ae0 803e 8be9 71bc 92ff 15be 0e5c 213e
00000070: d6ef f4bc 1e51 14bb 498e 303d c3bb 883e
00000080: e482 aab9 5de8 ee39 a815 1ebb 77a5 983c
00000090: 56ec b4b9 d705 b739 362c 38bc 7b5b df3b
000000a0: 52fd 3eb9 001f 35bc d50a 99bb 4fd1 923a
000000b0: db15 073d 044b 23be 5488 113c 63a2 08bd
000000c0: 64e8 8abe af2e 0abb 8a9a 3ebb ff9e 1cbb
000000d0: 5de2 5e3c e37f 393a d619 ce39 1736 9939
000000e0: 965f 673e 5305 73ba be96 043c fc87 a3ba
000000f0: 515c 17bb 5d1f 3abb 6197 5a3e 8ad0 853d
00000100: 997d a7bb 7e03 593c bb0b 8d3a 6319 9bbc
00000110: 36c9 2d3b 410b 59bb 5ccf f3bb 58c4 d03b
00000120: 8b7e c23a 252a aaba 26a2 84bb 2892 873b
00000130: e64c 6a3c 33e6 923e 811c c1bb c47e cdbc
00000140: f35c 67be ec72 d5bb 6384 56bc f21f cfbb
00000150: 88b5 0ebb 5cbb d33b 7b53 083c 765f 26bc
00000160: a831 623e 4eeb 10ba a7ab 9a3b f0a2 9bba
00000170: 8d9a 5ab8 c6f2 ccbb 543b abbd 6330 1bbe
00000180: 1fda cd3a 8a8d 143c 3aea 54bb 76cd c63b
00000190: 3407 5139 6e69 763b ff0b da3b b79f 97bb
000001a0: 738b 07b9 5976 a23c cca0 ef3a bf9b eebb
000001b0: d054 92ba adfa bebe dc6a 003b 6ecb dc3b
000001c0: 75cb 2b3e 2ad7 17bb 3a89 ca3b cc66 a8bb
000001d0: 0a9b 47ba 79e5 0dbb c9c9 bf3b fa0a 663c
000001e0: 45c4 893e dc3d 2f3b ae88 e33b ac2f 5dbb
000001f0: 5041 23bc 6b4f 2f3c 357d b2bd fed2 99bd
00000200: c54d 143c 18a6 7f3c 2c97 1bbb 16ae 5d3a
00000210: af3f 233b 3352 cf39 3080 4d3b 143a 513b
00000220: 7260 a6b9 e8f6 f73c f8cf 4c3a e4df 4bbb
00000230: fd91 26bd 3ea1 b23d 45f9 ff3b 638f 873c
00000240: 4f20 763e 58e6 013b d39a 073b 4c27 a43b
00000250: 03ad b83b 5a2d 5ab9 3f2b 793c a23a cb3c
00000260: 1efb 053e 6cf4 443b e9f9 313c d65f 6fba
00000270: 622b 66ba 5034 953a 5393 203e 11d2 cfbe
00000280: f238 a1be b4d0 c0be 5770 aa3e ed88 22be
00000290: 5898 28be fc5c b53e ab39 273c 9abf afbe
000002a0: f1da 09be ad68 273e 5e74 8bbe 92bb cebc
000002b0: 34ff a23e d94a 2f3e 4f11 16bd 513b 7d3e
000002c0: 188e cb3d 74d7 cf3d 96e6 5bbe 695e 0a3e
000002d0: cfea 8e3d 0607 bcbd 7e23 923d 5b9f 933e
000002e0: 80a0 163e 6b26 57bc b7f8 52bd d6c2 96bd
000002f0: a194 c9bc ff65 8fbe 231f a93e e103 aa3e
00000300: b7e0 da3d 2910 2b3e ae70 aebe a5e3 2ebd
00000310: 1d98 6c3b cfa2 af3e 7996 8ebe 661a a4be
00000320: d477 aebe 933d 893d b3ec 1dbe 3f6b 6bbe
00000330: 42c4 44bd 0764 8dbd 5d3b 6d3e 6183 963d
00000340: 3568 be3e 3fe2 ac3e b212 813e a9a1 afbd
00000350: d072 bbbe 3eae e83d ce90 963e 5ba7 293e
00000360: 3f52 a7bc 615d 7f3e 4607 88be de3a bb3e
00000370: 96fc 04be 2a80 87bd fbb0 62be 1f46 97bc
00000380: 8f81 5ebd e296 703e 6d0d c83d b084 bfbe
00000390: ade4 de3d 9a49 34be 7a67 35be 5210 87be
000003a0: b227 bd3e c7ad b9be e281 7abe 2f72 813e
000003b0: 8ead 85be d7f7 913e cfd2 023e 25d5 98be
000003c0: 7769 13bd 7da4 2f3e 7c94 6bbe 9112 953e
000003d0: 9ac9 893e b9dc 36be f927 84be da81 783e
000003e0: 0e0f 9e3e 049d 933e 0ff7 d6bc a627 633e
000003f0: 3ac2 eebc f628 77be 01d7 fb3d b9a7 203e
-0.071623266 -0.04200956 0.14903425 0.009824245 0.1621304 -0.10716849 -0.067857586 0.5246445
0.13013291 -0.07972498 0.17235944 -0.09635817 -0.8275251 0.12902366 0.012893294 0.0025534928
0.11766545 0.13464853 0.12898257 -0.04043617 0.067853615 0.12949656 0.15252794 -0.10876321
0.25171024 -0.014765154 -0.14648274 0.15757772 -0.029899519 -0.0022631357 0.043104444 0.2670575
-0.00032522448 0.00045568022 -0.0024121795 0.018633587 -0.0003450836 0.0003490883 -0.011241009 0.0068163252
-0.00018214181 -0.011054754 -0.0046704807 0.0011201295 0.032979827 -0.15946585 0.008882601 -0.03335799
-0.27130425 -0.0021084954 -0.0029083812 -0.002389848 0.013603774 0.00070762465 0.0003931063 0.00029222734
0.22595057 -0.0009270508 0.00809258 -0.001247644 -0.0023095796 -0.0028400042 0.21346809 0.06533916
-0.005111408 0.0132454615 0.0010760942 -0.018933004 0.0026517636 -0.003311828 -0.0074404906 0.0063710622
0.0014838738 -0.0012982531 -0.00404765 0.004137296 0.014300561 0.28691253 -0.0058932905 -0.02508486
-0.22594051 -0.006513944 -0.013093087 -0.006320947 -0.0021775682 0.006461544 0.008320685 -0.010154596
0.22089255 -0.0005528227 0.0047201696 -0.0011874121 -5.2119187e-05 -0.006254527 -0.08360925 -0.15155177
0.0015705264 0.009066949 -0.0032488243 0.0060669733 0.00019934477 0.0037599462 0.006654262 -0.004627194
-0.00012926552 0.019831823 0.0018282174 -0.00728175 -0.0011164192 -0.37300625 0.0019594943 0.006738118
0.16776831 -0.002316902 0.0061809095 -0.0051392075 -0.000761435 -0.002165167 0.005852912 0.014040703
0.26907554 0.0026739752 0.0069437837 -0.0033750338 -0.009964302 0.010700087 -0.087152876 -0.07510947
0.009051745 0.015603565 -0.0023741229 0.0008456422 0.0024909785 0.0003954336 0.0031356923 0.0031925486
-0.00031733845 0.030269101 0.0007812972 -0.003110879 -0.04066657 0.08722161 0.0078116977 0.016547864
0.24035762 0.0019821133 0.0020691648 0.0050095674 0.005635859 -0.00020806995 0.015208065 0.024808232
0.13084075 0.0030052913 0.010862806 -0.0009131407 -0.0008780268 0.0011383388 0.156812 -0.40589955
-0.31488758 -0.37659228 0.33288833 -0.15872546 -0.16464365 0.35422504 0.01020662 -0.34325868
-0.13462426 0.16348524 -0.2723722 -0.025235925 0.3183533 0.17118396 -0.0366376 0.24729659
0.099392116 0.10148516 -0.2147468 0.13512577 0.0697838 -0.09181027 0.07135676 0.28832516
0.14709663 -0.013131718 -0.051506724 -0.07361381 -0.024607005 -0.28007504 0.33031568 0.33206084
0.10687392 0.16705383 -0.34070343 -0.042697567 0.0036101409 0.343039 -0.27849177 -0.3205139
-0.34075797 0.067011975 -0.15422325 -0.2299013 -0.04803873 -0.06903844 0.23167177 0.07349277
0.3718888 0.33766362 0.25209576 -0.08575756 -0.36611032 0.11361359 0.29407352 0.16567747
-0.02042496 0.24937965 -0.2656805 0.3656835 -0.12986979 -0.06616242 -0.22137825 -0.018466054
-0.054322775 0.23495057 0.09768186 -0.3740592 0.1088346 -0.17606202 -0.17715254 -0.2637964
0.36944348 -0.36265394 -0.24463609 0.25282428 -0.26108974 0.285094 0.1277573 -0.29850116
-0.03598925 0.17152591 -0.23005861 0.29115728 0.26911622 -0.17857637 -0.25811747 0.24268284
0.3087086 0.2883073 -0.026240854 0.22183093 -0.029145349 -0.24136719 0.12296868 0.15688981

conv4.bias f4 [15]
00000000: 4508 9bbf cc1a 933d a105 f7bc 7986 a2bd
00000010: 9f80 883d cdcc cc3d cdcc cc3d cdcc cc3d
00000020: cdcc cc3d cdcc cc3d cdcc cc3d cdcc cc3d
00000030: cdcc cc3d cdcc cc3d cdcc cc3d
-1.2111899 0.071828455 -0.030154051 -0.07935805 0.066651575 0.1 0.1 0.1
0.1 0.1 0.1 0.1 0.1 0.1 0.1
